downloaded_models/pipeline_stock_predictor/pipeline_stock_predictor_model.pt (torch, 51054 bytes, 6 tensors)

weight f4 [100, 10]
000000 c3 58 66 3e 5c 8e 8e 3e 20 24 93 be 76 da a1 3d
       0.22494797 0.27842987 -0.287385 0.07902996
000010 c2 f3 d0 bd 14 13 67 3d 0b 57 c6 bd 07 40 28 be
       -0.10202743 0.05641468 -0.09684571 -0.16430674
000020 70 93 3f bd 8f ff 64 bd ab a4 87 3e cf 96 87 be
       -0.046771467 -0.055907782 0.2649282 -0.26482245
000030 bd 90 bf 3d e8 ae 03 3d dd 7a 4e be 8c 55 93 be
       0.093537785 0.032149225 -0.20164056 -0.28776205
000040 b2 bb 98 3e 0e 5d a1 be 62 31 21 be 8c d9 a1 be
       0.298307 -0.31516308 -0.15741494 -0.31611288
000050 07 1a 53 3e 61 e4 11 be 38 2f 17 be 88 e6 2f 3e
       0.20615397 -0.14247276 -0.14764106 0.17177784
000060 bc 26 36 be bd e6 35 3e 3e b5 3e 3e 22 27 f7 3c
       -0.17788213 0.17763801 0.18623826 0.030170027
000070 84 f5 ea 3d ea 18 96 3e 96 b1 5e 3e c9 8c 9b 3e
       0.1147261 0.29315883 0.21747431 0.30380848
000080 4f 16 6e be 10 c0 46 3e cd f0 59 3e 8e 05 20 be
       -0.23250698 0.19409204 0.21283264 -0.15627119
000090 d8 92 4e 3e c4 27 98 bd 9f 2b 8b bc 5d 22 99 3d
       0.20173204 -0.0742946 -0.016988574 0.074772574
0000a0 d6 c8 77 bd 72 e7 88 3d 73 ac 25 3e a0 29 18 be
       -0.060494266 0.0668477 0.16179065 -0.14859629
0000b0 f3 e4 04 be 74 c1 48 be e3 00 78 bc 12 8c 5d be
       -0.12977962 -0.19605047 -0.01513693 -0.21635464
0000c0 b0 15 77 3e a7 0f 68 be f3 1c 32 3d 87 f8 38 3d
       0.24129367 -0.22662221 0.04348464 0.04515889
0000d0 a0 dd f7 3d 12 28 1a be d4 95 f8 3d 0a fe 8e bd
       0.121028185 -0.15054348 0.121379524 -0.06982048
0000e0 09 e4 2c 3e f4 15 b8 3d 96 01 55 3d 35 1a 16 3e
       0.16883864 0.08988562 0.052003466 0.14658435
0000f0 4e fb 8a 3e ea 02 31 be 52 d7 91 be 08 0f 5b 3e
       0.27144855 -0.17286268 -0.2848459 0.21392453
000100 01 04 93 bd c1 6b 61 3e f1 fb 89 be 36 be 96 be
       -0.07178498 0.22013761 -0.2695003 -0.29441994
000110 c5 74 6a 3e d7 03 91 3e 91 ae 88 3e 2f 96 45 3e
       0.22896107 0.28323242 0.26695684 0.19295572
000120 4c 75 d2 bc f5 9e 3d 3e e0 91 a4 be 8e 5e ec bd
       -0.025690697 0.18517669 -0.32142544 -0.115414724
000130 f5 5d a3 be 75 22 37 3e 98 25 7b 3b ec 6d a6 3d
       -0.3190762 0.17884238 0.0038321968 0.08126435
000140 47 b6 8b 3e 8b be 88 3e c8 67 09 be 4b 01 6b bd
       0.27287504 0.26707873 -0.13418496 -0.05737428
000150 dc bd ac bd 5c 39 a1 3d f8 ef 2d be 32 23 27 3e
       -0.0843465 0.078722686 -0.16986072 0.1632202
000160 93 04 99 be e0 4b 60 3e a2 aa ca bd d6 02 52 3e
       -0.29886302 0.21903944 -0.09895827 0.20508894
000170 10 1d 4b 3c 72 2f 8e be e9 3b 2d be 30 42 2a be
       0.012397066 -0.27770573 -0.16917385 -0.16626811
000180 a6 da 2d 3e 59 62 0d 3c 1b 68 7a bd ff c7 80 be
       0.16977939 0.008629405 -0.06113444 -0.25152585
000190 37 32 9b 3e 62 33 99 be 00 3d 09 ba 97 83 1b be
       0.30311748 -0.29922014 -0.0005235225 -0.15186916
0001a0 36 3b 92 be d6 61 ca 3d 27 9f 51 3e fd 88 9f 3e
       -0.285608 0.09881942 0.20470868 0.311592
0001b0 58 ef f4 bc 44 f9 0e be 2b 03 42 bd fa 36 89 bd
       -0.029899284 -0.13962275 -0.047366302 -0.06699939
0001c0 08 46 71 3e d9 1c 63 3c 0e ac 9f be 76 93 81 be
       0.23561871 0.013861858 -0.31185955 -0.25307816
0001d0 19 c7 3d 3e d2 64 62 be 05 ec 18 3e 45 c7 80 3e
       0.18532981 -0.22108772 0.14933784 0.2515203
0001e0 7c b8 6a be 4b 0e 7b be 00 78 42 3e 81 3a 65 3e
       -0.22921938 -0.24517171 0.18991089 0.22385599
0001f0 3a f5 00 3e 2d 58 1e 3e 1c 9f 4b 3e 90 d1 3c be
       0.12593547 0.15463324 0.19884914 -0.18439317
000200 30 3c 72 3e 0b 77 40 be bb 8e 90 3e 84 bb 9d 3d
       0.23655772 -0.18795411 0.28233895 0.077017814
000210 ac 4e 8c 3e 58 bd 82 3e c3 b1 20 bd c4 bf 02 bd
       0.27403772 0.25535083 -0.039232027 -0.031921163
000220 52 78 a1 3d e6 f2 77 be 78 66 90 3e 40 17 4d 3d
       0.078842774 -0.24213752 0.28203177 0.050071
000230 1d 5e 95 3e 2c c2 d8 3d 86 14 83 3e 49 6d 88 3d
       0.29173365 0.1058391 0.25601596 0.066614695
000240 f2 eb 95 be b4 90 74 3e e1 31 61 be aa 6a 0c be
       -0.29281574 0.23883325 -0.21991684 -0.13712564
000250 55 fb 3a 3e 19 ae 13 bc 21 6b 43 3e f5 9a 78 3e
       0.18259938 -0.009013676 0.19083835 0.24277861
000260 f9 b1 74 bd a2 26 37 3d c0 11 4e 3e 3e 23 71 3e
       -0.05974004 0.044714577 0.20123959 0.235486
000270 4a 80 28 be b3 34 8a 3e df cb 97 3e 65 bc 79 3e
       -0.16455188 0.2699333 0.2964773 0.24388273
000280 03 8d 94 be bd 4b 71 3e fe 4b 52 be 82 1c a1 be
       -0.29013833 0.23564048 -0.20536801 -0.31467062
000290 fc 25 96 be 9f 86 33 bd a9 a9 22 3e ea 3c 8f bd
       -0.29325855 -0.043829557 0.15885033 -0.0699404
0002a0 a1 e7 87 bd f1 e9 36 be 99 a7 99 be 4a ae 7e be
       -0.066359766 -0.17862679 -0.3001068 -0.24871174
0002b0 67 d1 a4 3c 14 16 4b 3e 20 48 71 be 95 ac 06 be
       0.020119382 0.19832641 -0.2356267 -0.13151772
0002c0 5c 34 a0 be d9 c7 b0 3d d0 3a 55 be 05 aa 39 bd
       -0.31289947 0.08631868 -0.20823216 -0.04532816
0002d0 a1 aa 8c 3e b5 52 a5 be 19 db 53 be c0 15 f3 bd
       0.2747393 -0.32289663 -0.20689048 -0.11869383
0002e0 5c 19 ba 3c 82 20 9c bc 96 e2 27 3e 95 24 46 3e
       0.02271717 -0.01905847 0.1639503 0.19349892
0002f0 2c 2e 56 bb 9d fe 85 3e d3 c7 78 3d 3c 23 56 3e
       -0.003268133 0.26170817 0.060737442 0.20911878
000300 d2 71 e2 3b 74 ac 9a be 7e 88 b8 bc d4 4f 2f be
       0.006910541 -0.30209696 -0.022526022 -0.17120296
000310 4b 26 39 be c0 da 22 3d cb 21 fe 3d 4c 88 20 3e
       -0.18081014 0.039759398 0.12408789 0.15676993
000320 14 d5 76 be c7 19 d2 bd f4 1e ae 3d cf c8 98 bd
       -0.2410472 -0.10258823 0.085019976 -0.07460176
000330 a3 b6 5a be 43 5a 87 be 16 52 a5 3d 36 73 b2 bd
       -0.21358733 -0.26436052 0.08072297 -0.08713381
000340 18 a5 96 3e 7a 5e 6d be c2 fa 65 3e b9 eb 17 3e
       0.29422832 -0.23180571 0.22458938 0.14836015
000350 95 a0 c3 3d bb e8 fb bd 8e a9 87 be 78 27 6f be
       0.09552113 -0.12300249 -0.26496547 -0.233549
000360 8d ca 85 be ce a5 3c be e2 6b 03 3d 43 fd 57 3e
       -0.26131096 -0.18422624 0.032085307 0.21092705
000370 20 f8 1b 3d 59 72 86 3e f5 49 47 3e c9 16 26 be
       0.038078427 0.26259115 0.19461806 -0.1621963
000380 58 ee d1 bd bd 99 08 be f9 4f 6f 3d 01 5a 3b 3e
       -0.102505386 -0.13339897 0.058425877 0.18296053
000390 44 cf 18 3e e0 e6 eb bd 86 fc 6e 3e 4d 25 6b be
       0.14922816 -0.11518645 0.23338518 -0.22963448
0003a0 24 29 95 3d a8 ce 67 3e 21 59 87 be ba 8d 1d bd
       0.072832376 0.22637427 -0.26435187 -0.03846524
0003b0 23 6d 44 bd bc 2e b2 3d 99 94 42 bc c2 d1 4a be
       -0.047955643 0.0870032 -0.011876249 -0.19806579
0003c0 c5 fc 6a be 50 d3 89 be c7 c1 6e 3e 10 ad 8d be
       -0.22947986 -0.2691903 0.23316108 -0.276711
0003d0 36 4b 94 3e 5d 40 70 be 9b fe 9d bd a0 40 b9 bd
       0.2896363 -0.23462053 -0.07714578 -0.09045529
0003e0 69 96 37 3e bd db 9e be b8 8d c4 bd af a6 90 3e
       0.1792847 -0.31027022 -0.09597343 0.2825217
0003f0 6a 55 dd 3d d9 9b 8b be 4a d0 cc bd 04 4a 7a 3d
       0.10807307 -0.2726734 -0.100006655 0.061105743

bias f4 [100]
000000 79 5b 56 3e de 8a 9b be bd 73 5c 3e dc 13 64 3e
       0.20933332 -0.30379385 0.21528526 0.22273201
000010 dc 4c 98 3e 06 27 39 3e 33 18 51 be 77 01 3f 3e
       0.2974614 0.18081293 -0.20419388 0.18652903
000020 90 bb 13 3e 8d 2c 17 3e c3 01 64 3e 07 f9 7b be
       0.14427018 0.14763089 0.22266297 -0.24606715
000030 d6 90 4c 3e 9e 4c 3a 3e ef ee f4 bd 69 b9 12 be
       0.19977126 0.1819329 -0.119596355 -0.14328541
000040 78 a1 96 3e b7 79 a2 bd 25 cf 85 3d e5 a0 5b 3e
       0.29420066 -0.079333715 0.0653365 0.21448095
000050 00 3b f2 bb 40 b4 3c 3e e4 b9 9d 3e 60 17 79 3d
       -0.0073922873 0.18428135 0.30805886 0.060813308
000060 d0 c8 d2 3c e3 e1 1e 3e 27 c1 8d be 73 63 a0 be
       0.02573052 0.15515856 -0.27686426 -0.31325874
000070 6c 23 8f 3e 30 2f 3f 3e f7 45 22 bd c0 b5 8d bd
       0.27956712 0.18670344 -0.039617505 -0.06919432
000080 34 2a ea 3d b4 14 19 be 2b b2 23 3d 5a 08 fd bd
       0.11433831 -0.14949304 0.039964836 -0.123551086
000090 b3 7f 5e 3e 33 ee b1 bd f5 98 f2 bd fb 02 05 be
       0.21728401 -0.08688011 -0.118455805 -0.12989418
0000a0 62 71 79 3e d7 48 ac bd 46 64 37 bd 32 09 99 3e
       0.24359658 -0.084123306 -0.044773363 0.29889828
0000b0 3a b6 91 3b 5c 92 40 be ae 16 83 3e 30 73 e4 3d
       0.004446772 -0.18805832 0.2560324 0.11154783
0000c0 81 a0 41 be e8 83 a4 3e db db 6b be 70 04 31 3e
       -0.18908884 0.32131886 -0.23033087 0.17286849
0000d0 9c 3f e7 3d 1c 08 7f 3e 06 3d 19 3e b2 f0 58 3e
       0.112914294 0.24905437 0.14964685 0.21185568
0000e0 24 ac e4 3c 90 12 70 3d 0d 59 78 3e b5 fe 28 be
       0.027914114 0.058611453 0.2425272 -0.16503413
0000f0 9d 7f 96 be 56 f0 8d be b0 07 89 be d9 c0 7e 3e
       -0.29394236 -0.27722424 -0.26763678 0.24878253
000100 2e 47 85 bd 1e b1 f5 3d f1 fa 3d bd 37 75 4e 3e
       -0.06507717 0.11996673 -0.046381894 0.20161901
000110 92 08 8d 3e c4 71 ac bd 29 cd 07 be 0e 25 d6 3d
       0.275456 -0.084201366 -0.13261856 0.10456286
000120 48 cf 39 3e 22 c3 e7 3c 86 c2 a8 bd 5b 92 3e be
       0.18145478 0.028291289 -0.082402274 -0.18610518
000130 5a d0 e4 bd 80 74 d5 bd db c4 32 3c 48 99 41 be
       -0.111725524 -0.10422611 0.010911192 -0.18906128
000140 83 f7 2f 3e f4 18 96 3e f5 1c 9b be b0 6b 90 3d
       0.17184262 0.29315913 -0.3029553 0.0705179
000150 46 88 13 bd 16 97 6a 3e 2c 89 b3 3c 2a 48 88 3e
       -0.036018632 0.22909197 0.021915995 0.26617557
000160 d4 92 98 3e 24 24 be bc 17 03 7b bd c2 61 2a be
       0.2979952 -0.023210593 -0.061282244 -0.16638854
000170 a5 4a 06 be ac 0d 95 be 34 99 11 3e 04 85 60 3d
       -0.13114412 -0.29111993 0.14218599 0.054814354
000180 93 0b 9d be 63 6c 49 be ae 46 87 3e 1e 98 90 bb
       -0.30672893 -0.19670253 0.26421112 -0.004412665

weight f4 [100, 100]
000000 ed 27 df 3d cd bc 17 bb 8c 94 e8 3b 8b 8c cf 3d
       0.10896287 -0.0023153306 0.0070977863 0.10134228
000010 7c 1d 93 bd c5 e5 52 3d 17 5f 31 bd 8d 77 ab bd
       -0.07183358 0.051488657 -0.043303575 -0.08372412
000020 44 30 e0 bb 6e 23 2e 3d 92 7a 9e bd 0d 12 49 bd
       -0.006841691 0.042514257 -0.07738222 -0.04908948
000030 74 39 5a bc 92 58 0e 3d a2 ca ac bd 71 7d a6 bd
       -0.013319362 0.034752436 -0.08437087 -0.08129395
000040 a8 34 fe bb b0 91 87 3d ca a0 f2 bc 34 0a 7a 3d
       -0.007757742 0.066195846 -0.029617686 0.061044887
000050 f8 cd 8b bd 5f 7e 03 3c 32 4b 02 3c 57 bd 75 3d
       -0.06826395 0.008025735 0.007952498 0.05999502
000060 8e 06 2f bd a7 6d 08 bd 40 6d 9d 3c 5b 72 a1 3d
       -0.04273086 -0.033307698 0.019217134 0.0788314
000070 51 60 db 3d da fa 2b 3c b7 ba a8 3d 28 52 fc 3c
       0.1071173 0.010496819 0.08238738 0.030800894
000080 df f6 49 bc 2f a9 8c 3d 0d a9 97 3c 08 a6 85 bd
       -0.012326925 0.06868207 0.018513227 -0.065258086
000090 00 7b 98 bd c7 48 18 3d ba fe bb 3c 00 e8 ed 3c
       -0.074453354 0.03717878 0.022948612 0.02904129
0000a0 f8 72 75 3c d7 71 79 3d 10 d2 ad bd 18 1b 6d 3d
       0.014981024 0.06089958 -0.08487332 0.057887167
0000b0 eb ec 85 bd cf 77 86 3d e4 a7 70 3d 44 6d 80 bd
       -0.06539329 0.065658204 0.058753863 -0.06270841
0000c0 30 af 7d bd 4e 3f b3 3d 63 a6 82 bd 09 4a 0d bd
       -0.06193465 0.08752309 -0.06379392 -0.034494434
0000d0 e2 4f 8e bd 70 25 60 bd 63 b6 18 bd b7 9f 58 bd
       -0.0694883 -0.054723203 -0.037283313 -0.05288669
0000e0 aa da b3 3d 08 dc 81 bd 39 8c 34 3d ca fc 08 bd
       0.08781941 -0.06340796 0.04407904 -0.033444203
0000f0 2c e5 6a 3d 10 3d 1e bd b7 1d 9c bd b6 94 1c bd
       0.05734746 -0.038632452 -0.07622855 -0.03822776
000100 ab 47 7e 3c 69 f4 a6 bd b5 6e 8f 3d 0c b2 33 3b
       0.015520017 -0.08152086 0.070035376 0.0027419357
000110 68 27 89 bb 94 ea 98 bd 73 1a 8a bd 84 ef c8 bb
       -0.004185606 -0.07466617 -0.06743326 -0.006132068
000120 ac 32 da 3d dc 77 4e bd 5a f9 1b bd 33 9e 31 3b
       0.10654196 -0.050407276 -0.038079597 0.002710235
000130 77 12 2a bd 01 48 b0 3b 4b 02 e2 bc 4a 9a b9 bd
       -0.041521516 0.0053796773 -0.027588984 -0.090626314
000140 bd ae a1 3d ee c7 96 bb 67 00 65 3c 33 24 88 3d
       0.07894657 -0.00460147 0.013977147 0.066475295
000150 3e 3c b7 bd 10 e3 36 bc 74 d1 db 3d 25 19 b5 3d
       -0.08947037 -0.011162534 0.107333094 0.088426866
000160 b5 f3 ae bd f3 fa 60 bd fe 05 cb bc 38 17 d5 3a
       -0.08542577 -0.054926824 -0.02478313 0.001625753
000170 ce f2 28 3b 0d 5b c2 bc a4 13 14 3d 96 38 2d bd
       0.0025779488 -0.023725057 0.036151543 -0.042290293
000180 e7 18 aa 3b c0 c7 c1 3d 64 cc e4 3c 12 b2 f7 bc
       0.005190957 0.094619274 0.027929492 -0.030236278
000190 ed e7 7c 3d 08 5b 83 3d 8d 46 77 bc 07 a9 ae bd
       0.06174462 0.06413847 -0.015092504 -0.08528333
0001a0 0d 19 f0 bc d7 72 c3 3d 6d 67 bc bd 8d 24 a5 bd
       -0.02930882 0.09543388 -0.091994144 -0.08063612
0001b0 d7 88 42 3d 30 77 52 3d 33 c6 88 bc 67 7f e6 bc
       0.047493782 0.051383197 -0.016696071 -0.028136922
0001c0 5a 7a e0 bc 9a ce 0a 3c 43 10 4c 3d 1a 8b 38 bd
       -0.027402092 0.008472109 0.049820196 -0.045054533
0001d0 9a 8f dd bb 95 52 b2 3d 12 bc c1 bd 20 d2 cb 3c
       -0.0067615034 0.087071575 -0.094597 0.024880469
0001e0 43 a7 26 3d fd 2f bd 3d 62 e3 8c 3d 4a 0c b3 bd
       0.040686857 0.09237669 0.06879307 -0.08742578
0001f0 f3 f1 6d bd 7a fb 4e 3d 33 5d ba bd 77 0e 7d bd
       -0.05809207 0.050532795 -0.090998076 -0.061781373
000200 1a c7 0e bc 50 d9 49 3d cf 8b 89 bd e3 31 9a bd
       -0.008714462 0.04927951 -0.067161195 -0.075290464
000210 73 8f 74 bc e7 6c c1 3b 97 28 72 bd 7d c6 b3 3d
       -0.014926779 0.0059028747 -0.05912074 0.08778093
000220 fa af ef bc c7 f9 dd 3c c7 ce e4 bc 33 28 38 3b
       -0.029258717 0.027096642 -0.02793063 0.0028100132
000230 a7 6b 87 bd 05 52 9b bd ca 76 39 3d d3 d4 d7 bc
       -0.0661233 -0.07584003 0.0452793 -0.0263466
000240 8d 88 76 bd 63 76 bf bd 40 61 5f bd 1a 3d 7e bd
       -0.06018882 -0.09348752 -0.054536104 -0.06206999
000250 a3 36 48 3d 65 a9 c8 bd c3 d6 56 bd 42 42 c5 bd
       0.04888023 -0.097979344 -0.052450906 -0.09631778
000260 9a 57 05 bb 3a 57 af bc 40 bc 62 3c f3 78 67 3c
       -0.0020346404 -0.021403898 0.013838828 0.014127958
000270 e0 f6 7f 3d 6a 8d 4f 3d 6d 17 9a 3d 10 50 76 bd
       0.062491298 0.050671972 0.07523999 -0.060134947
000280 b3 dc 3f bd 68 24 a3 3d 37 f8 2a 3d 8d 14 94 bc
       -0.046841335 0.07965928 0.041740622 -0.018076206
000290 b3 2f 3c 3d 53 c5 ad 3d f7 68 37 3d cd 08 65 3d
       0.045943927 0.08484902 0.044777837 0.055916596
0002a0 c3 d6 86 bd c7 f7 0e bd 47 a8 9e 3d 8b 60 8c 3d
       -0.06583931 -0.034904268 0.0774694 0.068543516
0002b0 97 b8 bf bd 53 ab ca bd f3 36 20 bd 33 df 7a ba
       -0.093613796 -0.09895959 -0.039114904 -0.00095700024
0002c0 60 96 07 3d df 1f b8 bd af 60 83 bd 27 c1 a0 3c
       0.033102393 -0.08990454 -0.06414925 0.019623352
0002d0 cd 3e b4 bd c0 92 32 bc 9a c5 c8 ba 60 e5 a6 3c
       -0.08801041 -0.010899246 -0.0015317679 0.020373046
0002e0 c0 d1 9d bc 1b bc c2 3d 20 b0 c0 bd e7 5d 84 3c
       -0.019265056 0.095085345 -0.09408593 0.016158057
0002f0 8d 20 9d 3c b3 1c cf 3c db de b0 bd ca 41 8d 3d
       0.01918056 0.02528224 -0.08636256 0.06897314
000300 7f d9 88 bd c7 01 bf bd 83 8a 9b 3d 5a c9 c6 bc
       -0.06682109 -0.09326511 0.075947784 -0.024265934
000310 00 99 a2 3c 87 14 93 3d db 58 98 bd b0 da 76 bd
       0.019848347 0.0718165 -0.07438823 -0.06026715
000320 31 4e 76 3d 25 d8 ae bd 5c 94 44 bd 49 dd c9 3d
       0.060133163 -0.0853732 -0.04799305 0.0985666
000330 fd a7 5a bc ee d8 57 3d 3a 0f a8 3c a3 61 07 bd
       -0.013345716 0.052697115 0.020515073 -0.033052098
000340 1a 2e 63 3c 6d e9 b7 3d d6 b0 a4 bd a7 43 e4 3c
       0.013865972 0.08980069 -0.08041541 0.02786429
000350 a9 20 56 bd 90 1f 83 3a c1 d7 ce 3d fe 13 4c bc
       -0.05227724 0.0010003913 0.100997455 -0.012455938
000360 a0 49 fb 3c 28 87 bc 3d 5f d0 a2 3b 19 4d 65 bd
       0.030674756 0.092054665 0.0049686874 -0.05598173
000370 58 11 a3 bd f5 95 0d 3c ba d6 b2 bd 87 70 b4 bd
       -0.079622924 0.00864171 -0.08732362 -0.088105254
000380 f3 07 58 3c b0 b5 b0 bd f9 b5 33 3c a7 a6 b8 bd
       0.013185489 -0.08628404 0.010968679 -0.090161614
000390 cd 2c 13 3a 88 6b 90 bc 23 d3 9f bd 58 01 e6 3c
       0.0005614281 -0.0176294 -0.07803943 0.028076813
0003a0 41 f1 43 3d e7 d2 cc 3b 6d 78 be bc c3 01 84 3d
       0.0478375 0.0062507275 -0.023250783 0.064456485
0003b0 c7 21 23 3d 0d 6a d2 3c 2f fe 8a 3d cd bd 67 bb
       0.039827134 0.025685335 0.06786763 -0.0035360933
0003c0 2a ad 8d 3c cd ae 03 bc b2 09 b9 bd 96 bd df 3d
       0.017294485 -0.008037281 -0.09035052 0.109248325
0003d0 af 4f 96 3d 5d 52 21 bd 61 48 05 3d 97 e1 64 3c
       0.07339417 -0.03938519 0.03253973 0.0139698
0003e0 70 5f 0d 3d 84 81 90 3d c7 0b f2 3c 3b 60 9c bd
       0.034514844 0.07055953 0.029546632 -0.07635542
0003f0 c6 ab 14 3d 74 95 67 3d 56 95 62 3d 07 8b c1 bc
       0.03629663 0.056539014 0.0553182 -0.023625864

bias f4 [100]
000000 b6 de c1 3d 67 a5 60 3c 75 b1 48 3d 80 e4 8d bc
       0.09466307 0.01371131 0.04899736 -0.017320871
000010 a1 c3 a7 3d 73 18 b9 3c 23 db 19 3c f5 57 c9 bd
       0.0819161 0.022594666 0.009390625 -0.098312296
000020 b6 4a 10 bd 7a 0e 68 3d 61 e2 10 3d 0e 46 09 bd
       -0.0352275 0.05665443 0.03537214 -0.033514075
000030 51 6a 0f bd 0e c7 11 3d 13 f2 60 bd 62 ff 82 3d
       -0.0350135 0.035590224 -0.05491836 0.06396367
000040 d1 68 9d 3d 85 6a c3 3b e7 2d 41 3d 27 60 28 bc
       0.07686008 0.005963626 0.047162917 -0.010276831
000050 b3 39 01 bc 5a 96 6c 3c 37 b7 1e bd a3 4e d0 3d
       -0.007887292 0.0144401435 -0.038748946 0.10171249
000060 35 34 82 3c 40 6b 3f 3c 60 91 c5 bc 2d 61 b9 3c
       0.015894035 0.011683285 -0.024117172 0.022629345
000070 07 0a ce 3d 6c 8a 13 3d 11 03 19 bd fd 08 a0 3c
       0.10060506 0.03602068 -0.03735644 0.019535536
000080 25 33 5f bc 6c 7f e8 3c 16 25 8a bd b2 30 45 3d
       -0.013623034 0.028381072 -0.06745355 0.048142143
000090 77 19 84 bd c4 29 8b bd be 7b 80 3d b2 5f 3a 3b
       -0.064501695 -0.067950755 0.06273602 0.0028438387
0000a0 d0 11 80 bd cd 08 47 ba e8 e1 98 bd c3 b8 57 bd
       -0.062533975 -0.0007592559 -0.07464963 -0.052666437
0000b0 e1 88 c1 3c 60 d3 9e 3d ad 77 c7 3d bf 2e c7 bd
       0.02362484 0.0775516 0.09739623 -0.09725713
0000c0 8d 20 97 bc cc e0 55 3d 84 d2 c9 3c 33 33 77 bb
       -0.018448139 0.052216336 0.024636514 -0.0037719726
0000d0 ba e1 82 bc d7 ae 21 bd cc 38 87 3b c5 c6 bb bd
       -0.015976775 -0.03947338 0.0041266438 -0.09168772
0000e0 5b ea 35 3d 07 56 63 bd 3a 5c 8a 3d 33 c3 df 39
       0.044412952 -0.055501964 0.06755872 0.0004267931
0000f0 d2 0c e2 bc 83 78 96 bd 7f 38 25 3d 86 3b 8c 3c
       -0.027594004 -0.073472045 0.040337082 0.017118227
000100 4a 4e a6 bc dc fe 2f 3d 85 59 b7 bd f7 3a 60 bd
       -0.020301003 0.042967662 -0.08952621 -0.054743733
000110 9a ba fe bc 80 c6 d8 bd 4b f9 b5 bd cd 3c 90 ba
       -0.031094838 -0.10584736 -0.088854395 -0.0011004448
000120 73 a0 08 3c f7 f7 c5 bd b9 41 23 bd 40 6b 5a 3c
       0.008339035 -0.09666436 -0.0398576 0.013331234
000130 eb 87 09 3c c2 4a 00 bd 92 b9 44 3c e0 fe 40 bd
       0.008394222 -0.031321295 0.012007134 -0.047118068
000140 b3 95 3d bc 4d c8 11 bc 26 6c 84 3d 88 93 36 3d
       -0.011571336 -0.008897853 0.0646594 0.04457429
000150 7a 29 a4 3d c0 3c 8a bd c4 38 b5 3d f2 db 85 bb
       0.080157235 -0.067498684 0.08848718 -0.0040850574
000160 9a 3f e9 bc 6b db 02 3d 45 37 ac bd 8a e9 86 3d
       -0.02847271 0.031947535 -0.08408979 0.06587513
000170 35 97 04 bc d9 03 a1 bd d0 4e 05 bd b5 74 a5 bd
       -0.008092691 -0.07862062 -0.032545865 -0.08078901
000180 7c b1 c2 bc 7c b4 87 3d b9 03 04 bc cd 55 50 3b
       -0.023766272 0.066262215 -0.008057528 0.0031789423

weight f4 [5, 100]
000000 98 61 a0 3d 73 91 02 bd de e9 8c bd 9a d2 ec 3b
       0.078311145 -0.031876992 -0.06880544 0.007227254
000010 28 39 05 bd 80 10 df 3b 9d ad cd 3c 43 08 32 3d
       -0.03252521 0.006807387 0.0251072 0.04346491
000020 4f c1 5a 3d 28 b8 99 bd da b9 5f bd 32 8e b8 3c
       0.05340701 -0.07505828 -0.0546206 0.022528742
000030 80 b3 90 3c d2 ff 79 3c ed 52 23 3d 04 e6 c6 bc
       0.017663717 0.015258746 0.039874006 -0.024279602
000040 98 b5 a4 3d ea c5 08 bd aa 12 ca bd 05 6e 96 3d
       0.08042449 -0.03339187 -0.09866841 0.07345203
000050 00 ed 06 bd 03 3c c6 3d e7 1d cd 3b 19 82 8f 3d
       -0.032940865 0.09679415 0.006259668 0.07007236
000060 0b 17 8e 3c f3 0e d7 3c 40 1f a8 3c fa 65 e7 bc
       0.017344972 0.026252246 0.020522714 -0.028246868
000070 0c 40 79 bd 7e 9d 53 3b b3 59 54 bd 5e 64 d7 3d
       -0.060852095 0.0032289918 -0.051843356 0.105171904
000080 d4 4b 8f 3d bf e3 ac bd dd b0 be 3d 2c 12 75 3c
       0.06996885 -0.084418766 0.09311078 0.014957946
000090 ce c6 cd 3c 2b ce ed 3c 29 bd ad bd 8e 2e 8f 3d
       0.025119212 0.029028973 -0.08483345 0.069913015
0000a0 cd 20 01 bb 1a f7 df 3b ef 0d c6 3d 68 02 b3 3d
       -0.0019703389 0.0068348767 0.09670626 0.08740693
0000b0 5c 2c 81 bb 78 08 2b 3d d3 3b 2a bc 4d 1b 65 bd
       -0.0039420556 0.041756123 -0.01039024 -0.05593424
0000c0 3a 07 a2 3d 48 7f 53 bd d2 e3 20 bd c7 b4 05 bd
       0.079115346 -0.051635057 -0.039279766 -0.032643106
0000d0 a0 28 70 3d 8f 10 53 3d 88 b9 1a 3d d3 c8 25 3d
       0.058632493 0.051529463 0.037774593 0.040474724
0000e0 fe c0 8d 3d d2 c2 cb 3d 5a b5 3e bc 0f 3c a5 bd
       0.06921576 0.099492684 -0.011639917 -0.08068096
0000f0 2e a8 2c bd 90 a8 42 bd 73 7e 98 3d 61 a3 4c 3d
       -0.042152576 -0.047524035 0.07445993 0.049960498
000100 cc 65 c4 bc e1 82 8d 3d ec 25 29 bd b0 7d 86 bd
       -0.023974322 0.06909729 -0.04129593 -0.06566942
000110 93 5a 8a bd 93 e3 7b bc aa d1 48 bd 4d c5 99 3b
       -0.06755557 -0.015374082 -0.049028076 0.0046927095
000120 3d 41 29 bd c3 4b 6b 3d c1 44 51 3d f0 04 11 bd
       -0.04132198 0.0574453 0.05109096 -0.0354051
000130 a0 d5 b9 3d 02 de a1 bd 7c 24 bb 3c 09 f1 83 3d
       0.09073949 -0.07903673 0.022844546 0.06442458
000140 a0 5c 85 3d e7 14 9c 3d 90 50 88 bb 94 7d 38 3d
       0.065118074 0.07621174 -0.0041599944 0.045041636
000150 4b ae c6 bc 91 c6 8b bd 77 a0 78 bd 80 1d 81 3d
       -0.024253031 -0.06824983 -0.060699906 0.06304455
000160 74 ea 55 bd 66 ca 43 bd 17 27 3e 3d 56 f1 73 3d
       -0.052225545 -0.047800444 0.046423998 0.059556328
000170 ca 04 a3 3d 7e 3a 8c bc 74 0e 2c bd 87 1c a3 3d
       0.07959898 -0.017117735 -0.04200597 0.079644255
000180 64 50 de 3d e4 31 d8 3c d5 06 42 bd a0 33 66 3d
       0.10855177 0.026390977 -0.047369797 0.056201577
000190 e8 4b d0 3d 40 3d 95 3c da a0 b6 3d a0 e3 e7 3c
       0.10170728 0.018217683 0.08917399 0.028306782
0001a0 98 f8 63 3d a7 1d 7d 3c cf fd 9d bd cd 56 c9 3b
       0.055657 0.015448964 -0.07714426 0.0061443807
0001b0 c2 45 1b bd 36 e5 eb 3c 03 f5 68 3d 8f 61 a3 bc
       -0.037908323 0.02879582 0.056874286 -0.01994398
0001c0 d0 9a f1 bc 74 5b 02 3d 6d 32 14 3d 2c b6 e3 bc
       -0.029492766 0.031825498 0.036180902 -0.027796827
0001d0 25 e1 5a bd d9 73 c5 3c f3 fe 6f bc c0 26 94 bd
       -0.05343737 0.024103092 -0.014648187 -0.072339535
0001e0 a7 d7 54 bd d8 47 88 bd ad a7 06 3d a8 81 77 bd
       -0.051963475 -0.06654328 0.03287475 -0.060426384
0001f0 ae e8 25 3d 63 da 12 3d 9a 95 c5 3d b2 9c bc bd
       0.040505104 0.0358528 0.09647675 -0.09209575
000200 68 81 c7 3d 63 51 84 3c 54 3e a5 3c 0d e6 82 3d
       0.09741479 0.01615209 0.020171322 0.06391535
000210 5d cd cd 3d 87 5e 34 bc 0a 91 bc 3c 15 bd c3 3d
       0.100489356 -0.011008865 0.023018379 0.09557549
000220 43 27 85 bd f4 32 97 bd 80 f5 df b9 f2 ee b3 3b
       -0.06501629 -0.073827654 -0.00042716786 0.005491131
000230 9a 92 1d bd 6d 08 89 3c a0 a7 d9 3c f6 00 a4 bd
       -0.03846989 0.01672765 0.026569188 -0.08007996
000240 40 64 9f bd 09 86 8e 3d fb fd 60 3d 0d be a0 3c
       -0.07782793 0.06959159 0.054929715 0.019621873
000250 5a 56 8e bd 6d 04 22 3c ae 9f 25 bd a0 12 5a 3d
       -0.06950064 0.0098887505 -0.040435486 0.05324042
000260 28 ef a2 3d b0 17 25 3b 32 6c 98 3d fa 42 7e bd
       0.07955772 0.002519112 0.074425116 -0.062075593
000270 e4 4c 2b 3b 9f e7 86 3d 9d 06 92 3d f3 a7 0d bc
       0.002613836 0.06587147 0.07130168 -0.008645999
000280 b1 e0 af bd 63 79 bc bd 46 9e 9b 3d 6e 58 c6 3d
       -0.08587778 -0.0920284 0.07598548 0.096848354
000290 7a 29 c0 3d 7e 14 d7 bc 57 2d af 3d d3 7f a0 3d
       0.09382911 -0.026254889 0.0855357 0.078368805
0002a0 00 1e ca bd 9c 6d 22 bd 7b 8f 50 bd 0a a7 4a bd
       -0.09869003 -0.039655313 -0.050918084 -0.049475707
0002b0 82 5d b1 3d 5f 2a c7 bd 76 d9 c6 3d d5 bb ab bd
       0.08660413 -0.097248785 0.09709446 -0.083854355
0002c0 15 6f d4 3c b8 fa 80 bd f6 b3 d7 3c ec fd 48 3d
       0.025931874 -0.06297821 0.02633093 0.049070284
0002d0 0b 91 94 bd 53 7e a2 bd 75 83 14 bd 83 fa d2 bc
       -0.07254227 -0.07934251 -0.03625818 -0.025754219
0002e0 6a a9 8f bd e0 79 24 3a 79 0d 80 bd c3 aa 4e bd
       -0.07014735 0.00062742643 -0.0625257 -0.05045582
0002f0 40 ee b6 bb b4 39 f0 3c 9a f1 8a ba 2e 63 de 3c
       -0.005582601 0.02932439 -0.0010600567 0.027146902
000300 2f 04 a1 bd ea 4f 12 3d 90 70 70 bb aa 7e 10 3d
       -0.07862126 0.035720743 -0.0036688186 0.035277046
000310 88 f7 e0 3d 84 ed d3 3c e0 a5 2a 3c 1d 65 38 bd
       0.10984713 0.025870092 0.010415524 -0.045018304
000320 27 f4 cf 3d 07 0f ef 3c 84 54 d8 3d 27 27 0d bc
       0.1015399 0.02918197 0.10562995 -0.008615292
000330 aa ce 87 bc 0b fb b7 bd 84 4d de 3c 0d 3e 0a 3d
       -0.016578037 -0.089834295 0.027136572 0.033750582
000340 79 d9 10 bc 6a 35 cc 3d dc ab 6d 3d 80 cd 3f 3d
       -0.008840912 0.099711254 0.058025226 0.04682684
000350 26 b0 49 3d da f0 a3 bd f3 49 76 bc 0f 5a a1 3d
       0.049240254 -0.08004923 -0.015032279 0.078785054
000360 68 7b 62 3d f0 b2 14 bd fb 2b bc 3d cd b2 17 bd
       0.05529347 -0.03630346 0.09188076 -0.037035752
000370 cd a8 4b ba b0 41 b6 3d 40 69 8f bc f9 6f d4 3d
       -0.0007768989 0.08899248 -0.017506242 0.103729196
000380 0a 9d 12 3c 33 0b a1 bd 23 d0 7f bd c7 71 f5 3c
       0.008948574 -0.07863464 -0.062454354 0.02996148
000390 e3 b3 f0 3c 08 c7 47 3d 19 ee 2d bd ac 17 3f bd
       0.029382652 0.048773795 -0.042463396 -0.046653435
0003a0 5c 27 49 bd 09 18 99 bd 12 78 da 3d 08 9f 7f 3d
       -0.0491098 -0.074752875 0.10667433 0.062407523
0003b0 a6 81 63 3c d8 fe bf 3d 6e 36 65 bd eb 06 b9 bc
       0.013885891 0.093747795 -0.05596011 -0.022586307
0003c0 00 fe 04 bd d7 43 b9 3d fa bb 94 3c ce 27 0a 3d
       -0.032468796 0.090461425 0.01815604 0.033729367
0003d0 7a 30 2b 3b 18 e4 62 bd 9e f2 fb 3c da c9 ad bc
       0.0026121424 -0.05539331 0.030755337 -0.021214414
0003e0 dd 92 24 bd 5f e0 0e 3c 78 a8 60 3d 67 0b 8f 3b
       -0.040179122 0.008720486 0.054848164 0.004365373
0003f0 b3 53 ba 3b 19 60 5a 3d e7 91 b3 bd d7 7a 49 bd
       0.0056862473 0.053314302 -0.08768063 -0.049189415

bias f4 [5]
000000 e4 5c 58 bd 91 a2 a9 3d 5f 04 42 3d 15 13 92 3d
       -0.052822962 0.0828296 0.04736745 0.07132546
000010 8a b6 52 3d
       0.051443614
